Original data: (5404, 63) (5404, 2)
minX/maxX/meanX/stdX/miny/maxy: 0.0 59.0 0.740248258198 2.35919268164 4.39033 107.044
Creating model...
_________________________________________________________________
Layer (type)                 Output Shape              Param #   
=================================================================
lstm_1 (LSTM)                (None, 100, 512)          1179648   
_________________________________________________________________
dropout_1 (Dropout)          (None, 100, 512)          0         
_________________________________________________________________
lstm_2 (LSTM)                (None, 512)               2099200   
_________________________________________________________________
dropout_2 (Dropout)          (None, 512)               0         
_________________________________________________________________
dense_1 (Dense)              (None, 2)                 1026      
=================================================================
Total params: 3,279,874
Trainable params: 3,279,874
Non-trainable params: 0
_________________________________________________________________
Compiling model...
<keras.models.Sequential object at 0x7f58ab381150>
test size: 541 rest size: 4863
last piece to add
After sliding window: (442, 100, 63) (442, 2)
first part size: 0 second part size: 4863
…
