Using Theano backend.
Original data: (5394, 63) (5394, 2)
minX/maxX/meanX/stdX/miny/maxy: 0.0 106.0 1.79690838145 4.52748576462 4.39033 107.044
Creating model...
--------------------------------------------------------------------------------
Initial input shape: (64, 100, 63)
--------------------------------------------------------------------------------
Layer (name)                  Output Shape                  Param #             
--------------------------------------------------------------------------------
LSTM (Unnamed)                (64, 100, 512)                1179648             
Dropout (Unnamed)             (64, 100, 512)                0                   
LSTM (Unnamed)                (64, 512)                     2099200             
Dropout (Unnamed)             (64, 512)                     0                   
Dense (Unnamed)               (64, 2)                       1026                
--------------------------------------------------------------------------------
Total params: 3279874
--------------------------------------------------------------------------------
Compiling model...
<keras.models.Sequential object at 0x7f9a1007cad0>
test size: 540 rest size: 4854
After sliding window: (441, 100, 63) (441, 2)
first part size: 0 second part size: 4854
After sliding window: (4755, 100, 63) (4755, 2)
…
