Using Theano backend.
Original data: (5395, 63) (5395, 2)
minX/maxX/meanX/stdX/miny/maxy: 0.0 102.0 1.69127499007 4.33283195013 4.46126 107.2
Creating model...
--------------------------------------------------------------------------------
Initial input shape: (64, 100, 63)
--------------------------------------------------------------------------------
Layer (name)                  Output Shape                  Param #             
--------------------------------------------------------------------------------
LSTM (Unnamed)                (64, 100, 512)                1179648             
Dropout (Unnamed)             (64, 100, 512)                0                   
LSTM (Unnamed)                (64, 512)                     2099200             
Dropout (Unnamed)             (64, 512)                     0                   
Dense (Unnamed)               (64, 2)                       1026                
--------------------------------------------------------------------------------
Total params: 3279874
--------------------------------------------------------------------------------
Compiling model...
<keras.models.Sequential object at 0x7fdae2381b10>
test size: 540 rest size: 4855
After sliding window: (441, 100, 63) (441, 2)
first part size: 0 second part size: 4855
After sliding window: (4756, 100, 63) (4756, 2)
…
