Using Theano backend.
Original data: (5393, 63) (5393, 2)
minX/maxX/meanX/stdX/miny/maxy: 0.0 107.0 1.90249853573 4.71870533664 4.46126 107.2
Creating model...
--------------------------------------------------------------------------------
Initial input shape: (64, 100, 63)
--------------------------------------------------------------------------------
Layer (name)                  Output Shape                  Param #             
--------------------------------------------------------------------------------
LSTM (Unnamed)                (64, 100, 512)                1179648             
Dropout (Unnamed)             (64, 100, 512)                0                   
LSTM (Unnamed)                (64, 512)                     2099200             
Dropout (Unnamed)             (64, 512)                     0                   
Dense (Unnamed)               (64, 2)                       1026                
--------------------------------------------------------------------------------
Total params: 3279874
--------------------------------------------------------------------------------
Compiling model...
<keras.models.Sequential object at 0x7f3029c7ea90>
test size: 540 rest size: 4853
After sliding window: (441, 100, 63) (441, 2)
first part size: 0 second part size: 4853
After sliding window: (4754, 100, 63) (4754, 2)
…
