Using Theano backend.
Original data: (5392, 63) (5392, 2)
minX/maxX/meanX/stdX/miny/maxy: 0.0 108.0 2.0080954736 4.90679871866 4.39033 107.044
Creating model...
--------------------------------------------------------------------------------
Initial input shape: (64, 100, 63)
--------------------------------------------------------------------------------
Layer (name)                  Output Shape                  Param #             
--------------------------------------------------------------------------------
LSTM (Unnamed)                (64, 100, 512)                1179648             
Dropout (Unnamed)             (64, 100, 512)                0                   
LSTM (Unnamed)                (64, 512)                     2099200             
Dropout (Unnamed)             (64, 512)                     0                   
Dense (Unnamed)               (64, 2)                       1026                
--------------------------------------------------------------------------------
Total params: 3279874
--------------------------------------------------------------------------------
Compiling model...
<keras.models.Sequential object at 0x7fbe6d8cda50>
test size: 540 rest size: 4852
After sliding window: (441, 100, 63) (441, 2)
first part size: 0 second part size: 4852
After sliding window: (4753, 100, 63) (4753, 2)
…
