…
(5404, 63)
random_IDs_40.txt (10, 40) 
 using indexes (shape,values): (40,) : [23 32  0 38 21 42 50 25 47  6 57  7 54 61  9 43 12  1 48 33  4 40 28 26 34
 17 55 41 16  2 39 56  8 58 29 60 20 52  3 31]
Creating model...
--------------------------------------------------------------------------------
Initial input shape: (64, 100, 40)
--------------------------------------------------------------------------------
Layer (name)                  Output Shape                  Param #             
--------------------------------------------------------------------------------
LSTM (Unnamed)                (64, 100, 512)                1132544             
Dropout (Unnamed)             (64, 100, 512)                0                   
LSTM (Unnamed)                (64, 512)                     2099200             
Dropout (Unnamed)             (64, 512)                     0                   
Dense (Unnamed)               (64, 2)                       1026                
--------------------------------------------------------------------------------
Total params: 3232770
--------------------------------------------------------------------------------
Compiling model...
<keras.models.Sequential object at 0x35df710>
test size: 541 rest size: 4863
After sliding window: (442, 100, 40) (442, 2)
first part size: 0 second part size: 4863
After sliding window: (4764, 100, 40) (4764, 2)
…
