…
random_IDs_50.txt (10, 50) 
 using indexes (shape,values): (50,) : [24 21 14  0 42 16 56  9 35 61  4 30 13 57  3 50  5 37 60 26 43 59 29 45 41
 53 54 15 28 55  7 25 62 33 12  1 36 39  2 40 58 52 31  6 48 10 46 27 44 34]
Creating model...
--------------------------------------------------------------------------------
Initial input shape: (64, 100, 50)
--------------------------------------------------------------------------------
Layer (name)                  Output Shape                  Param #             
--------------------------------------------------------------------------------
LSTM (Unnamed)                (64, 100, 512)                1153024             
Dropout (Unnamed)             (64, 100, 512)                0                   
LSTM (Unnamed)                (64, 512)                     2099200             
Dropout (Unnamed)             (64, 512)                     0                   
Dense (Unnamed)               (64, 2)                       1026                
--------------------------------------------------------------------------------
Total params: 3253250
--------------------------------------------------------------------------------
Compiling model...
<keras.models.Sequential object at 0x2390710>
test size: 541 rest size: 4863
After sliding window: (442, 100, 50) (442, 2)
first part size: 0 second part size: 4863
After sliding window: (4764, 100, 50) (4764, 2)
…
