…
(5404, 63)
random_IDs_40.txt (10, 40) 
 using indexes (shape,values): (40,) : [34 59 60 35 30 29 52  0 42 10 17  8  1 33 46 27 47  2 15 13  7 53 41 44 11
 39  5 49 14 40 19 26  6  4 43 37 22 32 61 45]
Creating model...
--------------------------------------------------------------------------------
Initial input shape: (64, 100, 40)
--------------------------------------------------------------------------------
Layer (name)                  Output Shape                  Param #             
--------------------------------------------------------------------------------
LSTM (Unnamed)                (64, 100, 512)                1132544             
Dropout (Unnamed)             (64, 100, 512)                0                   
LSTM (Unnamed)                (64, 512)                     2099200             
Dropout (Unnamed)             (64, 512)                     0                   
Dense (Unnamed)               (64, 2)                       1026                
--------------------------------------------------------------------------------
Total params: 3232770
--------------------------------------------------------------------------------
Compiling model...
<keras.models.Sequential object at 0x2b9d710>
test size: 541 rest size: 4863
After sliding window: (442, 100, 40) (442, 2)
first part size: 0 second part size: 4863
After sliding window: (4764, 100, 40) (4764, 2)
…
