…
random_IDs_45.txt (10, 45) 
 using indexes (shape,values): (45,) : [55  9 29 12 45  6 10 27 48 43 26  0  7 57 17  4 13 59 15 49 40 62 22 31 61
 58 24 46 21 19  5 11 50 37 39 41 25 14  3 60 44 47 33 23 16]
Creating model...
--------------------------------------------------------------------------------
Initial input shape: (64, 100, 45)
--------------------------------------------------------------------------------
Layer (name)                  Output Shape                  Param #             
--------------------------------------------------------------------------------
LSTM (Unnamed)                (64, 100, 512)                1142784             
Dropout (Unnamed)             (64, 100, 512)                0                   
LSTM (Unnamed)                (64, 512)                     2099200             
Dropout (Unnamed)             (64, 512)                     0                   
Dense (Unnamed)               (64, 2)                       1026                
--------------------------------------------------------------------------------
Total params: 3243010
--------------------------------------------------------------------------------
Compiling model...
<keras.models.Sequential object at 0x2984710>
test size: 541 rest size: 4863
After sliding window: (442, 100, 45) (442, 2)
first part size: 0 second part size: 4863
After sliding window: (4764, 100, 45) (4764, 2)
…
