…
random_IDs_50.txt (10, 50) 
 using indexes (shape,values): (50,) : [59  3 34 24 42  4  2 56 25 18 47 20 15 39 11 31 38 61  0 57 62 33 49 44 26
 27 51 17 10 37 29 40  9 58 35 54 21 43  7 50 19  1  5 28 48 41 14 45 55 46]
Creating model...
--------------------------------------------------------------------------------
Initial input shape: (64, 100, 50)
--------------------------------------------------------------------------------
Layer (name)                  Output Shape                  Param #             
--------------------------------------------------------------------------------
LSTM (Unnamed)                (64, 100, 512)                1153024             
Dropout (Unnamed)             (64, 100, 512)                0                   
LSTM (Unnamed)                (64, 512)                     2099200             
Dropout (Unnamed)             (64, 512)                     0                   
Dense (Unnamed)               (64, 2)                       1026                
--------------------------------------------------------------------------------
Total params: 3253250
--------------------------------------------------------------------------------
Compiling model...
<keras.models.Sequential object at 0x2462710>
test size: 541 rest size: 4863
After sliding window: (442, 100, 50) (442, 2)
first part size: 0 second part size: 4863
After sliding window: (4764, 100, 50) (4764, 2)
…
