…
random_IDs_45.txt (10, 45) 
 using indexes (shape,values): (45,) : [39 62  4 47 51 57  0 20 31 43 35 53 27 30 12 16 42 11 46 56  1 18 10 24 17
 55 22 58 38 40 32 49  6 13  5  2 28 21  7 14 19 25 45 48 37]
Creating model...
--------------------------------------------------------------------------------
Initial input shape: (64, 100, 45)
--------------------------------------------------------------------------------
Layer (name)                  Output Shape                  Param #             
--------------------------------------------------------------------------------
LSTM (Unnamed)                (64, 100, 512)                1142784             
Dropout (Unnamed)             (64, 100, 512)                0                   
LSTM (Unnamed)                (64, 512)                     2099200             
Dropout (Unnamed)             (64, 512)                     0                   
Dense (Unnamed)               (64, 2)                       1026                
--------------------------------------------------------------------------------
Total params: 3243010
--------------------------------------------------------------------------------
Compiling model...
<keras.models.Sequential object at 0x307f710>
test size: 541 rest size: 4863
After sliding window: (442, 100, 45) (442, 2)
first part size: 0 second part size: 4863
After sliding window: (4764, 100, 45) (4764, 2)
…
