…
(5404, 63)
random_IDs_40.txt (10, 40) 
 using indexes (shape,values): (40,) : [ 1 23 22 55 51  0 16  7  6 20  4 36 43 21 25  5 17 10 12 38 60 46 13 47 37
 29  9 39 61 49 27 24 33 45 41 59 42 26 54 14]
Creating model...
--------------------------------------------------------------------------------
Initial input shape: (64, 100, 40)
--------------------------------------------------------------------------------
Layer (name)                  Output Shape                  Param #             
--------------------------------------------------------------------------------
LSTM (Unnamed)                (64, 100, 512)                1132544             
Dropout (Unnamed)             (64, 100, 512)                0                   
LSTM (Unnamed)                (64, 512)                     2099200             
Dropout (Unnamed)             (64, 512)                     0                   
Dense (Unnamed)               (64, 2)                       1026                
--------------------------------------------------------------------------------
Total params: 3232770
--------------------------------------------------------------------------------
Compiling model...
<keras.models.Sequential object at 0x1bf8710>
test size: 541 rest size: 4863
After sliding window: (442, 100, 40) (442, 2)
first part size: 0 second part size: 4863
After sliding window: (4764, 100, 40) (4764, 2)
…
