…
random_IDs_45.txt (10, 45) 
 using indexes (shape,values): (45,) : [57 16 10 33 51 15 12 35 50 20  2 52  5 54 40 53 44 32 45 24 36 30 26 56 13
  0 37 28 23 60 11 18  8  7 48  1  6 55 29  4 31 38 49 17 46]
Creating model...
--------------------------------------------------------------------------------
Initial input shape: (64, 100, 45)
--------------------------------------------------------------------------------
Layer (name)                  Output Shape                  Param #             
--------------------------------------------------------------------------------
LSTM (Unnamed)                (64, 100, 512)                1142784             
Dropout (Unnamed)             (64, 100, 512)                0                   
LSTM (Unnamed)                (64, 512)                     2099200             
Dropout (Unnamed)             (64, 512)                     0                   
Dense (Unnamed)               (64, 2)                       1026                
--------------------------------------------------------------------------------
Total params: 3243010
--------------------------------------------------------------------------------
Compiling model...
<keras.models.Sequential object at 0x2a2f710>
test size: 541 rest size: 4863
After sliding window: (442, 100, 45) (442, 2)
first part size: 0 second part size: 4863
After sliding window: (4764, 100, 45) (4764, 2)
…
