…
(5404, 63)
random_IDs_40.txt (10, 40) 
 using indexes (shape,values): (40,) : [43 30 53  2 21 23 58  7  3 39 33  1  0 32 56 42 10 61 47  6 26 60 38 27 51
  9 36 46 57  4 62 19 35 49 13 55 11 48 16 54]
Creating model...
--------------------------------------------------------------------------------
Initial input shape: (64, 100, 40)
--------------------------------------------------------------------------------
Layer (name)                  Output Shape                  Param #             
--------------------------------------------------------------------------------
LSTM (Unnamed)                (64, 100, 512)                1132544             
Dropout (Unnamed)             (64, 100, 512)                0                   
LSTM (Unnamed)                (64, 512)                     2099200             
Dropout (Unnamed)             (64, 512)                     0                   
Dense (Unnamed)               (64, 2)                       1026                
--------------------------------------------------------------------------------
Total params: 3232770
--------------------------------------------------------------------------------
Compiling model...
<keras.models.Sequential object at 0x2f18710>
test size: 541 rest size: 4863
After sliding window: (442, 100, 40) (442, 2)
first part size: 0 second part size: 4863
After sliding window: (4764, 100, 40) (4764, 2)
…
