…
(5404, 63)
random_IDs_40.txt (10, 40) 
 using indexes (shape,values): (40,) : [30 10 46 16 19 47 62 21 23 53 36 17 51  3 29 60 57 59 28 44 49 27  9 38  1
 55 50 31 48  2 39 41 34 24 32 45 42 56 25 18]
Creating model...
--------------------------------------------------------------------------------
Initial input shape: (64, 100, 40)
--------------------------------------------------------------------------------
Layer (name)                  Output Shape                  Param #             
--------------------------------------------------------------------------------
LSTM (Unnamed)                (64, 100, 512)                1132544             
Dropout (Unnamed)             (64, 100, 512)                0                   
LSTM (Unnamed)                (64, 512)                     2099200             
Dropout (Unnamed)             (64, 512)                     0                   
Dense (Unnamed)               (64, 2)                       1026                
--------------------------------------------------------------------------------
Total params: 3232770
--------------------------------------------------------------------------------
Compiling model...
<keras.models.Sequential object at 0x2ed2710>
test size: 541 rest size: 4863
After sliding window: (442, 100, 40) (442, 2)
first part size: 0 second part size: 4863
After sliding window: (4764, 100, 40) (4764, 2)
…
