…
random_IDs_45.txt (10, 45) 
 using indexes (shape,values): (45,) : [27 31  8 58 13  0 44  9 41 20 43 62 45 25 17 55 47 49 57 18 37 50  4 10 23
  1 48 61 19 35 54 15 42 29  3 51 36 53  6 33 34 30  5 56 46]
Creating model...
--------------------------------------------------------------------------------
Initial input shape: (64, 100, 45)
--------------------------------------------------------------------------------
Layer (name)                  Output Shape                  Param #             
--------------------------------------------------------------------------------
LSTM (Unnamed)                (64, 100, 512)                1142784             
Dropout (Unnamed)             (64, 100, 512)                0                   
LSTM (Unnamed)                (64, 512)                     2099200             
Dropout (Unnamed)             (64, 512)                     0                   
Dense (Unnamed)               (64, 2)                       1026                
--------------------------------------------------------------------------------
Total params: 3243010
--------------------------------------------------------------------------------
Compiling model...
<keras.models.Sequential object at 0x1d23710>
test size: 541 rest size: 4863
After sliding window: (442, 100, 45) (442, 2)
first part size: 0 second part size: 4863
After sliding window: (4764, 100, 45) (4764, 2)
…
