…
 using indexes (shape,values): (55,) : [26 46 16  6 35 37 59 40 55  4 53 29 49 25 52 19 47 33 58 44 60 34 45 31 50
 24 21  9 13 30 57 38 41 42 18  0 48 51 32 11  8  7 39 22 15 27  5  1 10 54
 28 14 56  2 43]
Creating model...
--------------------------------------------------------------------------------
Initial input shape: (64, 100, 55)
--------------------------------------------------------------------------------
Layer (name)                  Output Shape                  Param #             
--------------------------------------------------------------------------------
LSTM (Unnamed)                (64, 100, 512)                1163264             
Dropout (Unnamed)             (64, 100, 512)                0                   
LSTM (Unnamed)                (64, 512)                     2099200             
Dropout (Unnamed)             (64, 512)                     0                   
Dense (Unnamed)               (64, 2)                       1026                
--------------------------------------------------------------------------------
Total params: 3263490
--------------------------------------------------------------------------------
Compiling model...
<keras.models.Sequential object at 0x2004710>
test size: 541 rest size: 4863
After sliding window: (442, 100, 55) (442, 2)
first part size: 0 second part size: 4863
After sliding window: (4764, 100, 55) (4764, 2)
…
