…
random_IDs_50.txt (10, 50) 
 using indexes (shape,values): (50,) : [18 25 41 55 56 54 62 58 61 38 30 13 23 24 46 59 48 12  5 60 51 19  0  9 52
 39 26 37 44 15 40 31 49  6  4  3 47 27 35 42  2 17 36 22 10 43 16  8 14 50]
Creating model...
--------------------------------------------------------------------------------
Initial input shape: (64, 100, 50)
--------------------------------------------------------------------------------
Layer (name)                  Output Shape                  Param #             
--------------------------------------------------------------------------------
LSTM (Unnamed)                (64, 100, 512)                1153024             
Dropout (Unnamed)             (64, 100, 512)                0                   
LSTM (Unnamed)                (64, 512)                     2099200             
Dropout (Unnamed)             (64, 512)                     0                   
Dense (Unnamed)               (64, 2)                       1026                
--------------------------------------------------------------------------------
Total params: 3253250
--------------------------------------------------------------------------------
Compiling model...
<keras.models.Sequential object at 0x30f8710>
test size: 541 rest size: 4863
After sliding window: (442, 100, 50) (442, 2)
first part size: 0 second part size: 4863
After sliding window: (4764, 100, 50) (4764, 2)
…
