…
 using indexes (shape,values): (55,) : [26 37 36 24  9 60 62 28 22  6 56 12  4 10 30 29 50  7  2 61 51 31 43 47 39
 52 19 33 42 18  3 25 11 54 59 48  5 23 16  1 45 44 15 38 41  8  0 32 40 14
 55 21 49 53 34]
Creating model...
--------------------------------------------------------------------------------
Initial input shape: (64, 100, 55)
--------------------------------------------------------------------------------
Layer (name)                  Output Shape                  Param #             
--------------------------------------------------------------------------------
LSTM (Unnamed)                (64, 100, 512)                1163264             
Dropout (Unnamed)             (64, 100, 512)                0                   
LSTM (Unnamed)                (64, 512)                     2099200             
Dropout (Unnamed)             (64, 512)                     0                   
Dense (Unnamed)               (64, 2)                       1026                
--------------------------------------------------------------------------------
Total params: 3263490
--------------------------------------------------------------------------------
Compiling model...
<keras.models.Sequential object at 0x1c4f710>
test size: 541 rest size: 4863
After sliding window: (442, 100, 55) (442, 2)
first part size: 0 second part size: 4863
After sliding window: (4764, 100, 55) (4764, 2)
…
