…
random_IDs_50.txt (10, 50) 
 using indexes (shape,values): (50,) : [36 24 20 59  9 39 25 27 60  4 28 30 37 22 45 52 11  6 13  3 31 34 47 23 40
 33 61 17 38  2 12 46 56 62 55 48  1 14 42 58 29 15 57 35 44  0 54 16 18 19]
Creating model...
--------------------------------------------------------------------------------
Initial input shape: (64, 100, 50)
--------------------------------------------------------------------------------
Layer (name)                  Output Shape                  Param #             
--------------------------------------------------------------------------------
LSTM (Unnamed)                (64, 100, 512)                1153024             
Dropout (Unnamed)             (64, 100, 512)                0                   
LSTM (Unnamed)                (64, 512)                     2099200             
Dropout (Unnamed)             (64, 512)                     0                   
Dense (Unnamed)               (64, 2)                       1026                
--------------------------------------------------------------------------------
Total params: 3253250
--------------------------------------------------------------------------------
Compiling model...
<keras.models.Sequential object at 0x2d13710>
test size: 541 rest size: 4863
After sliding window: (442, 100, 50) (442, 2)
first part size: 0 second part size: 4863
After sliding window: (4764, 100, 50) (4764, 2)
…
