…
random_IDs_50.txt (10, 50) 
 using indexes (shape,values): (50,) : [59 52 41 51 15 44 14 10 48 43 56 61 21 12  8 37 57  9  4 17 34  1 22 33 13
 49 46 39  0 47 55 18  2  6 45  7  3 40 53 60 26 11 23  5 54 31 35 50 16 27]
Creating model...
--------------------------------------------------------------------------------
Initial input shape: (64, 100, 50)
--------------------------------------------------------------------------------
Layer (name)                  Output Shape                  Param #             
--------------------------------------------------------------------------------
LSTM (Unnamed)                (64, 100, 512)                1153024             
Dropout (Unnamed)             (64, 100, 512)                0                   
LSTM (Unnamed)                (64, 512)                     2099200             
Dropout (Unnamed)             (64, 512)                     0                   
Dense (Unnamed)               (64, 2)                       1026                
--------------------------------------------------------------------------------
Total params: 3253250
--------------------------------------------------------------------------------
Compiling model...
<keras.models.Sequential object at 0x3684710>
test size: 541 rest size: 4863
After sliding window: (442, 100, 50) (442, 2)
first part size: 0 second part size: 4863
After sliding window: (4764, 100, 50) (4764, 2)
…
