…
minX/maxX/meanX/stdX/miny/maxy: 0.0 59.0 0.740248258198 2.35919268164 4.39033 107.044
(5404, 63)
random_IDs_15.txt (10, 15) 
 using indexes (shape,values): (15,) : [ 1  7 48 34 58 36 17 49 59 32 52  6 26 42 53]
Creating model...
--------------------------------------------------------------------------------
Initial input shape: (64, 100, 15)
--------------------------------------------------------------------------------
Layer (name)                  Output Shape                  Param #             
--------------------------------------------------------------------------------
LSTM (Unnamed)                (64, 100, 512)                1081344             
Dropout (Unnamed)             (64, 100, 512)                0                   
LSTM (Unnamed)                (64, 512)                     2099200             
Dropout (Unnamed)             (64, 512)                     0                   
Dense (Unnamed)               (64, 2)                       1026                
--------------------------------------------------------------------------------
Total params: 3181570
--------------------------------------------------------------------------------
Compiling model...
<keras.models.Sequential object at 0x7faf219c9090>
test size: 541 rest size: 4863
After sliding window: (442, 100, 15) (442, 2)
first part size: 0 second part size: 4863
After sliding window: (4764, 100, 15) (4764, 2)
…
