…
 using indexes (shape,values): (55,) : [38 44 55 47 43 33 18 13  7  8 36 45  5 10 41 48 25 61  1  3 35 46 12 24  4
 21 29 31 19 53 22 54 17 32 34  0 57 16  2 62  9 14 20 60 51 26 58 11 50 15
 42 59 39 28 23]
Creating model...
--------------------------------------------------------------------------------
Initial input shape: (64, 100, 55)
--------------------------------------------------------------------------------
Layer (name)                  Output Shape                  Param #             
--------------------------------------------------------------------------------
LSTM (Unnamed)                (64, 100, 512)                1163264             
Dropout (Unnamed)             (64, 100, 512)                0                   
LSTM (Unnamed)                (64, 512)                     2099200             
Dropout (Unnamed)             (64, 512)                     0                   
Dense (Unnamed)               (64, 2)                       1026                
--------------------------------------------------------------------------------
Total params: 3263490
--------------------------------------------------------------------------------
Compiling model...
<keras.models.Sequential object at 0x2841710>
test size: 541 rest size: 4863
After sliding window: (442, 100, 55) (442, 2)
first part size: 0 second part size: 4863
After sliding window: (4764, 100, 55) (4764, 2)
…
