…
Original data: (5404, 63) (5404, 2)
minX/maxX/meanX/stdX/miny/maxy: 0.0 59.0 0.740248258198 2.35919268164 4.39033 107.044
(5404, 63)
random_IDs_5.txt (10, 5) 
 using indexes (shape,values): (5,) : [51  2  8 29 58]
Creating model...
--------------------------------------------------------------------------------
Initial input shape: (64, 100, 5)
--------------------------------------------------------------------------------
Layer (name)                  Output Shape                  Param #             
--------------------------------------------------------------------------------
LSTM (Unnamed)                (64, 100, 512)                1060864             
Dropout (Unnamed)             (64, 100, 512)                0                   
LSTM (Unnamed)                (64, 512)                     2099200             
Dropout (Unnamed)             (64, 512)                     0                   
Dense (Unnamed)               (64, 2)                       1026                
--------------------------------------------------------------------------------
Total params: 3161090
--------------------------------------------------------------------------------
Compiling model...
<keras.models.Sequential object at 0x254c710>
test size: 541 rest size: 4863
After sliding window: (442, 100, 5) (442, 2)
first part size: 0 second part size: 4863
After sliding window: (4764, 100, 5) (4764, 2)
…
