…
minX/maxX/meanX/stdX/miny/maxy: 0.0 59.0 0.740248258198 2.35919268164 4.39033 107.044
(5404, 63)
random_IDs_20.txt (10, 20) 
 using indexes (shape,values): (20,) : [21 41 52 58 55 11 45 28  1 57 30 16  7 35  5 51 20 46 22 33]
Creating model...
--------------------------------------------------------------------------------
Initial input shape: (64, 100, 20)
--------------------------------------------------------------------------------
Layer (name)                  Output Shape                  Param #             
--------------------------------------------------------------------------------
LSTM (Unnamed)                (64, 100, 512)                1091584             
Dropout (Unnamed)             (64, 100, 512)                0                   
LSTM (Unnamed)                (64, 512)                     2099200             
Dropout (Unnamed)             (64, 512)                     0                   
Dense (Unnamed)               (64, 2)                       1026                
--------------------------------------------------------------------------------
Total params: 3191810
--------------------------------------------------------------------------------
Compiling model...
<keras.models.Sequential object at 0x1947710>
test size: 541 rest size: 4863
After sliding window: (442, 100, 20) (442, 2)
first part size: 0 second part size: 4863
After sliding window: (4764, 100, 20) (4764, 2)
…
