Using Theano backend.
Original data: (6169, 48) (6169, 2)
minX/maxX/meanX/stdX/miny/maxy: 0.0 89.0 2.34476481872 5.18791210934 3.13092 108.905
Creating model...
--------------------------------------------------------------------------------
Initial input shape: (64, 100, 48)
--------------------------------------------------------------------------------
Layer (name)                  Output Shape                  Param #             
--------------------------------------------------------------------------------
LSTM (Unnamed)                (64, 100, 512)                1148928             
Dropout (Unnamed)             (64, 100, 512)                0                   
LSTM (Unnamed)                (64, 512)                     2099200             
Dropout (Unnamed)             (64, 512)                     0                   
Dense (Unnamed)               (64, 2)                       1026                
--------------------------------------------------------------------------------
Total params: 3249154
--------------------------------------------------------------------------------
Compiling model...
test size: 617 rest size: 5552
After sliding window: (518, 100, 48) (518, 2)
first part size: 0 second part size: 5552
After sliding window: (5453, 100, 48) (5453, 2)
test shapes: (518, 100, 48) (518, 2) rest shapes: (5453, 100, 48) (5453, 2)
…
