Using Theano backend.
Original data: (6180, 48) (6180, 2)
minX/maxX/meanX/stdX/miny/maxy: 0.0 14.0 0.195344525351 0.73018911392 3.07387 108.918
Creating model...
--------------------------------------------------------------------------------
Initial input shape: (64, 100, 48)
--------------------------------------------------------------------------------
Layer (name)                  Output Shape                  Param #             
--------------------------------------------------------------------------------
LSTM (Unnamed)                (64, 100, 512)                1148928             
Dropout (Unnamed)             (64, 100, 512)                0                   
LSTM (Unnamed)                (64, 512)                     2099200             
Dropout (Unnamed)             (64, 512)                     0                   
Dense (Unnamed)               (64, 2)                       1026                
--------------------------------------------------------------------------------
Total params: 3249154
--------------------------------------------------------------------------------
Compiling model...
test size: 618 rest size: 5562
After sliding window: (519, 100, 48) (519, 2)
first part size: 0 second part size: 5562
After sliding window: (5463, 100, 48) (5463, 2)
test shapes: (519, 100, 48) (519, 2) rest shapes: (5463, 100, 48) (5463, 2)
…
