Using Theano backend.
Original data: (6174, 48) (6174, 2)
minX/maxX/meanX/stdX/miny/maxy: 0.0 60.0 1.36756627254 3.34776313337 3.07387 108.918
Creating model...
--------------------------------------------------------------------------------
Initial input shape: (64, 100, 48)
--------------------------------------------------------------------------------
Layer (name)                  Output Shape                  Param #             
--------------------------------------------------------------------------------
LSTM (Unnamed)                (64, 100, 512)                1148928             
Dropout (Unnamed)             (64, 100, 512)                0                   
LSTM (Unnamed)                (64, 512)                     2099200             
Dropout (Unnamed)             (64, 512)                     0                   
Dense (Unnamed)               (64, 2)                       1026                
--------------------------------------------------------------------------------
Total params: 3249154
--------------------------------------------------------------------------------
Compiling model...
test size: 618 rest size: 5556
After sliding window: (519, 100, 48) (519, 2)
first part size: 0 second part size: 5556
After sliding window: (5457, 100, 48) (5457, 2)
test shapes: (519, 100, 48) (519, 2) rest shapes: (5457, 100, 48) (5457, 2)
…
