Using Theano backend.
Original data: (6168, 48) (6168, 2)
minX/maxX/meanX/stdX/miny/maxy: 0.0 92.0 2.54020414505 5.53714032906 3.07387 108.918
Creating model...
--------------------------------------------------------------------------------
Initial input shape: (64, 100, 48)
--------------------------------------------------------------------------------
Layer (name)                  Output Shape                  Param #             
--------------------------------------------------------------------------------
LSTM (Unnamed)                (64, 100, 512)                1148928             
Dropout (Unnamed)             (64, 100, 512)                0                   
LSTM (Unnamed)                (64, 512)                     2099200             
Dropout (Unnamed)             (64, 512)                     0                   
Dense (Unnamed)               (64, 2)                       1026                
--------------------------------------------------------------------------------
Total params: 3249154
--------------------------------------------------------------------------------
Compiling model...
test size: 617 rest size: 5551
After sliding window: (518, 100, 48) (518, 2)
first part size: 0 second part size: 5551
After sliding window: (5452, 100, 48) (5452, 2)
test shapes: (518, 100, 48) (518, 2) rest shapes: (5452, 100, 48) (5452, 2)
…
