Using Theano backend.
Original data: (6172, 48) (6172, 2)
minX/maxX/meanX/stdX/miny/maxy: 0.0 73.0 1.75842177036 4.10599657491 3.07387 108.918
Creating model...
--------------------------------------------------------------------------------
Initial input shape: (64, 100, 48)
--------------------------------------------------------------------------------
Layer (name)                  Output Shape                  Param #             
--------------------------------------------------------------------------------
LSTM (Unnamed)                (64, 100, 512)                1148928             
Dropout (Unnamed)             (64, 100, 512)                0                   
LSTM (Unnamed)                (64, 512)                     2099200             
Dropout (Unnamed)             (64, 512)                     0                   
Dense (Unnamed)               (64, 2)                       1026                
--------------------------------------------------------------------------------
Total params: 3249154
--------------------------------------------------------------------------------
Compiling model...
test size: 618 rest size: 5554
After sliding window: (519, 100, 48) (519, 2)
first part size: 0 second part size: 5554
After sliding window: (5455, 100, 48) (5455, 2)
test shapes: (519, 100, 48) (519, 2) rest shapes: (5455, 100, 48) (5455, 2)
…
