Using Theano backend.
Original data: (6175, 48) (6175, 2)
minX/maxX/meanX/stdX/miny/maxy: 0.0 51.0 1.17216261808 2.95381664504 3.13092 108.905
Creating model...
--------------------------------------------------------------------------------
Initial input shape: (64, 100, 48)
--------------------------------------------------------------------------------
Layer (name)                  Output Shape                  Param #             
--------------------------------------------------------------------------------
LSTM (Unnamed)                (64, 100, 512)                1148928             
Dropout (Unnamed)             (64, 100, 512)                0                   
LSTM (Unnamed)                (64, 512)                     2099200             
Dropout (Unnamed)             (64, 512)                     0                   
Dense (Unnamed)               (64, 2)                       1026                
--------------------------------------------------------------------------------
Total params: 3249154
--------------------------------------------------------------------------------
Compiling model...
test size: 618 rest size: 5557
After sliding window: (519, 100, 48) (519, 2)
first part size: 0 second part size: 5557
After sliding window: (5458, 100, 48) (5458, 2)
test shapes: (519, 100, 48) (519, 2) rest shapes: (5458, 100, 48) (5458, 2)
…
