Using Theano backend.
Original data: (6178, 48) (6178, 2)
minX/maxX/meanX/stdX/miny/maxy: 0.0 31.0 0.586061427646 1.68985463869 3.07387 108.918
Creating model...
--------------------------------------------------------------------------------
Initial input shape: (64, 100, 48)
--------------------------------------------------------------------------------
Layer (name)                  Output Shape                  Param #             
--------------------------------------------------------------------------------
LSTM (Unnamed)                (64, 100, 512)                1148928             
Dropout (Unnamed)             (64, 100, 512)                0                   
LSTM (Unnamed)                (64, 512)                     2099200             
Dropout (Unnamed)             (64, 512)                     0                   
Dense (Unnamed)               (64, 2)                       1026                
--------------------------------------------------------------------------------
Total params: 3249154
--------------------------------------------------------------------------------
Compiling model...
test size: 618 rest size: 5560
After sliding window: (519, 100, 48) (519, 2)
first part size: 0 second part size: 5560
After sliding window: (5461, 100, 48) (5461, 2)
test shapes: (519, 100, 48) (519, 2) rest shapes: (5461, 100, 48) (5461, 2)
…
