Using Theano backend.
Original data: (6167, 48) (6167, 2)
minX/maxX/meanX/stdX/miny/maxy: 0.0 100.0 2.73563928977 5.88112017374 3.13092 108.905
Creating model...
--------------------------------------------------------------------------------
Initial input shape: (64, 100, 48)
--------------------------------------------------------------------------------
Layer (name)                  Output Shape                  Param #             
--------------------------------------------------------------------------------
LSTM (Unnamed)                (64, 100, 512)                1148928             
Dropout (Unnamed)             (64, 100, 512)                0                   
LSTM (Unnamed)                (64, 512)                     2099200             
Dropout (Unnamed)             (64, 512)                     0                   
Dense (Unnamed)               (64, 2)                       1026                
--------------------------------------------------------------------------------
Total params: 3249154
--------------------------------------------------------------------------------
Compiling model...
test size: 617 rest size: 5550
After sliding window: (518, 100, 48) (518, 2)
first part size: 0 second part size: 5550
After sliding window: (5451, 100, 48) (5451, 2)
test shapes: (518, 100, 48) (518, 2) rest shapes: (5451, 100, 48) (5451, 2)
…
