Using Theano backend.
Original data: (6171, 48) (6171, 2)
minX/maxX/meanX/stdX/miny/maxy: 0.0 82.0 1.95384324529 4.47300737891 3.13092 108.905
Creating model...
--------------------------------------------------------------------------------
Initial input shape: (64, 100, 48)
--------------------------------------------------------------------------------
Layer (name)                  Output Shape                  Param #             
--------------------------------------------------------------------------------
LSTM (Unnamed)                (64, 100, 512)                1148928             
Dropout (Unnamed)             (64, 100, 512)                0                   
LSTM (Unnamed)                (64, 512)                     2099200             
Dropout (Unnamed)             (64, 512)                     0                   
Dense (Unnamed)               (64, 2)                       1026                
--------------------------------------------------------------------------------
Total params: 3249154
--------------------------------------------------------------------------------
Compiling model...
test size: 618 rest size: 5553
After sliding window: (519, 100, 48) (519, 2)
first part size: 0 second part size: 5553
After sliding window: (5454, 100, 48) (5454, 2)
test shapes: (519, 100, 48) (519, 2) rest shapes: (5454, 100, 48) (5454, 2)
…
