Using Theano backend.
Original data: (6173, 48) (6173, 2)
minX/maxX/meanX/stdX/miny/maxy: 0.0 69.0 1.56299273719 3.73129107362 3.13092 108.905
Creating model...
--------------------------------------------------------------------------------
Initial input shape: (64, 100, 48)
--------------------------------------------------------------------------------
Layer (name)                  Output Shape                  Param #             
--------------------------------------------------------------------------------
LSTM (Unnamed)                (64, 100, 512)                1148928             
Dropout (Unnamed)             (64, 100, 512)                0                   
LSTM (Unnamed)                (64, 512)                     2099200             
Dropout (Unnamed)             (64, 512)                     0                   
Dense (Unnamed)               (64, 2)                       1026                
--------------------------------------------------------------------------------
Total params: 3249154
--------------------------------------------------------------------------------
Compiling model...
test size: 618 rest size: 5555
After sliding window: (519, 100, 48) (519, 2)
first part size: 0 second part size: 5555
After sliding window: (5456, 100, 48) (5456, 2)
test shapes: (519, 100, 48) (519, 2) rest shapes: (5456, 100, 48) (5456, 2)
…
