Using Theano backend.
Original data:  (6413, 33) (6413, 2) 0.0 30.0 0.494006019969 1.62828954256 2.19264 115.836
(6413, 2)
original data dimensions from load_data (6413, 33) (6413, 2)
Creating model...
--------------------------------------------------------------------------------
Initial input shape: (64, 100, 33)
--------------------------------------------------------------------------------
Layer (name)                  Output Shape                  Param #             
--------------------------------------------------------------------------------
LSTM (Unnamed)                (64, 100, 512)                1118208             
Dropout (Unnamed)             (64, 100, 512)                0                   
LSTM (Unnamed)                (64, 512)                     2099200             
Dropout (Unnamed)             (64, 512)                     0                   
Dense (Unnamed)               (64, 2)                       1026                
--------------------------------------------------------------------------------
Total params: 3218434
--------------------------------------------------------------------------------
Compiling model...
After sliding window: (543, 100, 33) (543, 2)
first and second part lengths are... 0 5771
After sliding window: (5672, 100, 33) (5672, 2)
SLIDING WINDOW : shapes of test and rest: (543, 100, 33) (5672, 100, 33)
…
