Using Theano backend.
Original data:  (6408, 33) (6408, 2) 0.0 66.0 1.31755759846 3.47842451762 2.73484 115.774
(6408, 2)
original data dimensions from load_data (6408, 33) (6408, 2)
Creating model...
--------------------------------------------------------------------------------
Initial input shape: (64, 100, 33)
--------------------------------------------------------------------------------
Layer (name)                  Output Shape                  Param #             
--------------------------------------------------------------------------------
LSTM (Unnamed)                (64, 100, 512)                1118208             
Dropout (Unnamed)             (64, 100, 512)                0                   
LSTM (Unnamed)                (64, 512)                     2099200             
Dropout (Unnamed)             (64, 512)                     0                   
Dense (Unnamed)               (64, 2)                       1026                
--------------------------------------------------------------------------------
Total params: 3218434
--------------------------------------------------------------------------------
Compiling model...
After sliding window: (542, 100, 33) (542, 2)
first and second part lengths are... 0 5767
After sliding window: (5668, 100, 33) (5668, 2)
SLIDING WINDOW : shapes of test and rest: (542, 100, 33) (5668, 100, 33)
…
