Using Theano backend.
Original data:  (6407, 33) (6407, 2) 0.0 74.0 1.48229446013 3.80125553964 2.19264 115.836
(6407, 2)
original data dimensions from load_data (6407, 33) (6407, 2)
Creating model...
--------------------------------------------------------------------------------
Initial input shape: (64, 100, 33)
--------------------------------------------------------------------------------
Layer (name)                  Output Shape                  Param #             
--------------------------------------------------------------------------------
LSTM (Unnamed)                (64, 100, 512)                1118208             
Dropout (Unnamed)             (64, 100, 512)                0                   
LSTM (Unnamed)                (64, 512)                     2099200             
Dropout (Unnamed)             (64, 512)                     0                   
Dense (Unnamed)               (64, 2)                       1026                
--------------------------------------------------------------------------------
Total params: 3218434
--------------------------------------------------------------------------------
Compiling model...
After sliding window: (542, 100, 33) (542, 2)
first and second part lengths are... 0 5766
After sliding window: (5667, 100, 33) (5667, 2)
SLIDING WINDOW : shapes of test and rest: (542, 100, 33) (5667, 100, 33)
…
