Using Theano backend.
Original data:  (6403, 33) (6403, 2) 0.0 97.0 2.14093772332 4.99282580573 2.19264 115.836
(6403, 2)
original data dimensions from load_data (6403, 33) (6403, 2)
Creating model...
--------------------------------------------------------------------------------
Initial input shape: (64, 100, 33)
--------------------------------------------------------------------------------
Layer (name)                  Output Shape                  Param #             
--------------------------------------------------------------------------------
LSTM (Unnamed)                (64, 100, 512)                1118208             
Dropout (Unnamed)             (64, 100, 512)                0                   
LSTM (Unnamed)                (64, 512)                     2099200             
Dropout (Unnamed)             (64, 512)                     0                   
Dense (Unnamed)               (64, 2)                       1026                
--------------------------------------------------------------------------------
Total params: 3218434
--------------------------------------------------------------------------------
Compiling model...
After sliding window: (542, 100, 33) (542, 2)
first and second part lengths are... 0 5762
After sliding window: (5663, 100, 33) (5663, 2)
SLIDING WINDOW : shapes of test and rest: (542, 100, 33) (5663, 100, 33)
…
