Using Theano backend.
Original data:  (6406, 33) (6406, 2) 0.0 78.0 1.64702598889 4.1126944337 2.73484 115.774
(6406, 2)
original data dimensions from load_data (6406, 33) (6406, 2)
Creating model...
--------------------------------------------------------------------------------
Initial input shape: (64, 100, 33)
--------------------------------------------------------------------------------
Layer (name)                  Output Shape                  Param #             
--------------------------------------------------------------------------------
LSTM (Unnamed)                (64, 100, 512)                1118208             
Dropout (Unnamed)             (64, 100, 512)                0                   
LSTM (Unnamed)                (64, 512)                     2099200             
Dropout (Unnamed)             (64, 512)                     0                   
Dense (Unnamed)               (64, 2)                       1026                
--------------------------------------------------------------------------------
Total params: 3218434
--------------------------------------------------------------------------------
Compiling model...
After sliding window: (542, 100, 33) (542, 2)
first and second part lengths are... 0 5765
After sliding window: (5666, 100, 33) (5666, 2)
SLIDING WINDOW : shapes of test and rest: (542, 100, 33) (5666, 100, 33)
…
