Using Theano backend.
Original data:  (6402, 33) (6402, 2) 0.0 102.0 2.3056099893 5.27111173036 2.73484 115.774
(6402, 2)
original data dimensions from load_data (6402, 33) (6402, 2)
Creating model...
--------------------------------------------------------------------------------
Initial input shape: (64, 100, 33)
--------------------------------------------------------------------------------
Layer (name)                  Output Shape                  Param #             
--------------------------------------------------------------------------------
LSTM (Unnamed)                (64, 100, 512)                1118208             
Dropout (Unnamed)             (64, 100, 512)                0                   
LSTM (Unnamed)                (64, 512)                     2099200             
Dropout (Unnamed)             (64, 512)                     0                   
Dense (Unnamed)               (64, 2)                       1026                
--------------------------------------------------------------------------------
Total params: 3218434
--------------------------------------------------------------------------------
Compiling model...
After sliding window: (542, 100, 33) (542, 2)
first and second part lengths are... 0 5761
After sliding window: (5662, 100, 33) (5662, 2)
SLIDING WINDOW : shapes of test and rest: (542, 100, 33) (5662, 100, 33)
…
