Using Theano backend.
Original data:  (6401, 33) (6401, 2) 0.0 104.0 2.47028163213 5.5425369314 2.19264 115.836
(6401, 2)
original data dimensions from load_data (6401, 33) (6401, 2)
Creating model...
--------------------------------------------------------------------------------
Initial input shape: (64, 100, 33)
--------------------------------------------------------------------------------
Layer (name)                  Output Shape                  Param #             
--------------------------------------------------------------------------------
LSTM (Unnamed)                (64, 100, 512)                1118208             
Dropout (Unnamed)             (64, 100, 512)                0                   
LSTM (Unnamed)                (64, 512)                     2099200             
Dropout (Unnamed)             (64, 512)                     0                   
Dense (Unnamed)               (64, 2)                       1026                
--------------------------------------------------------------------------------
Total params: 3218434
--------------------------------------------------------------------------------
Compiling model...
After sliding window: (542, 100, 33) (542, 2)
first and second part lengths are... 0 5760
After sliding window: (5661, 100, 33) (5661, 2)
SLIDING WINDOW : shapes of test and rest: (542, 100, 33) (5661, 100, 33)
…
