Using Theano backend.
Original data:  (6411, 33) (6411, 2) 0.0 45.0 0.823348127981 2.42569022059 2.19264 115.836
(6411, 2)
original data dimensions from load_data (6411, 33) (6411, 2)
Creating model...
--------------------------------------------------------------------------------
Initial input shape: (64, 100, 33)
--------------------------------------------------------------------------------
Layer (name)                  Output Shape                  Param #             
--------------------------------------------------------------------------------
LSTM (Unnamed)                (64, 100, 512)                1118208             
Dropout (Unnamed)             (64, 100, 512)                0                   
LSTM (Unnamed)                (64, 512)                     2099200             
Dropout (Unnamed)             (64, 512)                     0                   
Dense (Unnamed)               (64, 2)                       1026                
--------------------------------------------------------------------------------
Total params: 3218434
--------------------------------------------------------------------------------
Compiling model...
After sliding window: (543, 100, 33) (543, 2)
first and second part lengths are... 0 5769
After sliding window: (5670, 100, 33) (5670, 2)
SLIDING WINDOW : shapes of test and rest: (543, 100, 33) (5670, 100, 33)
…
