Using Theano backend.
Original data:  (6410, 33) (6410, 2) 0.0 53.0 0.988058431428 2.79274969112 2.73484 115.774
(6410, 2)
original data dimensions from load_data (6410, 33) (6410, 2)
Creating model...
--------------------------------------------------------------------------------
Initial input shape: (64, 100, 33)
--------------------------------------------------------------------------------
Layer (name)                  Output Shape                  Param #             
--------------------------------------------------------------------------------
LSTM (Unnamed)                (64, 100, 512)                1118208             
Dropout (Unnamed)             (64, 100, 512)                0                   
LSTM (Unnamed)                (64, 512)                     2099200             
Dropout (Unnamed)             (64, 512)                     0                   
Dense (Unnamed)               (64, 2)                       1026                
--------------------------------------------------------------------------------
Total params: 3218434
--------------------------------------------------------------------------------
Compiling model...
After sliding window: (542, 100, 33) (542, 2)
first and second part lengths are... 0 5769
After sliding window: (5670, 100, 33) (5670, 2)
SLIDING WINDOW : shapes of test and rest: (542, 100, 33) (5670, 100, 33)
…
