Using Theano backend.
Original data: (6413, 33) (6413, 2)
minX/maxX/meanX/stdX/miny/maxy: 0.0 30.0 0.494006019969 1.62828954256 2.19264 115.836
Creating model...
--------------------------------------------------------------------------------
Initial input shape: (64, 100, 33)
--------------------------------------------------------------------------------
Layer (name)                  Output Shape                  Param #             
--------------------------------------------------------------------------------
LSTM (Unnamed)                (64, 100, 512)                1118208             
Dropout (Unnamed)             (64, 100, 512)                0                   
LSTM (Unnamed)                (64, 512)                     2099200             
Dropout (Unnamed)             (64, 512)                     0                   
Dense (Unnamed)               (64, 2)                       1026                
--------------------------------------------------------------------------------
Total params: 3218434
--------------------------------------------------------------------------------
Compiling model...
test shape: (642, 33) (642, 2)
After sliding window: (543, 100, 33) (543, 2)
pred_y: (543, 2)
test shape: (642, 33) (642, 2)
After sliding window: (543, 100, 33) (543, 2)
pred_y: (543, 2)
…
