Using Theano backend.
Original data: (6403, 33) (6403, 2)
minX/maxX/meanX/stdX/miny/maxy: 0.0 97.0 2.14093772332 4.99282580573 2.19264 115.836
Creating model...
--------------------------------------------------------------------------------
Initial input shape: (64, 100, 33)
--------------------------------------------------------------------------------
Layer (name)                  Output Shape                  Param #             
--------------------------------------------------------------------------------
LSTM (Unnamed)                (64, 100, 512)                1118208             
Dropout (Unnamed)             (64, 100, 512)                0                   
LSTM (Unnamed)                (64, 512)                     2099200             
Dropout (Unnamed)             (64, 512)                     0                   
Dense (Unnamed)               (64, 2)                       1026                
--------------------------------------------------------------------------------
Total params: 3218434
--------------------------------------------------------------------------------
Compiling model...
test shape: (641, 33) (641, 2)
After sliding window: (542, 100, 33) (542, 2)
pred_y: (542, 2)
test shape: (641, 33) (641, 2)
After sliding window: (542, 100, 33) (542, 2)
pred_y: (542, 2)
…
