…
original data dimensions from load_data (6964, 72) (6964, 1)
cutting first seconds to remove mistaken locations (6964, 72) (6964, 1)
After cutting first seconds to remove mistaken locations (6839, 72) (6839, 1)
Creating model...
--------------------------------------------------------------------------------
Initial input shape: (64, 100, 72)
--------------------------------------------------------------------------------
Layer (name)                  Output Shape                  Param #             
--------------------------------------------------------------------------------
LSTM (Unnamed)                (64, 100, 512)                1198080             
Dropout (Unnamed)             (64, 100, 512)                0                   
LSTM (Unnamed)                (64, 512)                     2099200             
Dropout (Unnamed)             (64, 512)                     0                   
Dense (Unnamed)               (64, 1)                       513                 
--------------------------------------------------------------------------------
Total params: 3297793
--------------------------------------------------------------------------------
Compiling model...
test shape: (684, 72) (684, 1)
After sliding window: (585, 100, 72) (585, 1)
pred_y: (585, 1)
test shape: (684, 72) (684, 1)
After sliding window: (585, 100, 72) (585, 1)
pred_y: (585, 1)
…
