…
 using indexes (shape,values): (55,) : [ 1 31 24 61 11 52  5 53 18  9 40 59 58  2  3 19 14 51 46 17 62 55 42 37 35
 29 15 16 28 49 43 10 48 33 44 60 26  8  6 56 23 34 22 39  4 36 57 41 38  7
  0 54 20 25 32]
Creating model...
--------------------------------------------------------------------------------
Initial input shape: (64, 100, 55)
--------------------------------------------------------------------------------
Layer (name)                  Output Shape                  Param #             
--------------------------------------------------------------------------------
LSTM (Unnamed)                (64, 100, 512)                1163264             
Dropout (Unnamed)             (64, 100, 512)                0                   
LSTM (Unnamed)                (64, 512)                     2099200             
Dropout (Unnamed)             (64, 512)                     0                   
Dense (Unnamed)               (64, 2)                       1026                
--------------------------------------------------------------------------------
Total params: 3263490
--------------------------------------------------------------------------------
Compiling model...
test shape: (541, 55) (541, 2)
After sliding window: (442, 100, 55) (442, 2)
pred_y: (442, 2)
test shape: (541, 55) (541, 2)
After sliding window: (442, 100, 55) (442, 2)
pred_y: (442, 2)
…
