…
random_IDs_45.txt (10, 45) 
 using indexes (shape,values): (45,) : [61 40 48  1 16 51 17 47 18 57 15 39 53 29 12  4 49 42 19  8 28 52 24  7 10
  3 36 45 35 26 41 20 34 14 62 46 59 58 30  0 60  2 22  9 37]
Creating model...
--------------------------------------------------------------------------------
Initial input shape: (64, 100, 45)
--------------------------------------------------------------------------------
Layer (name)                  Output Shape                  Param #             
--------------------------------------------------------------------------------
LSTM (Unnamed)                (64, 100, 512)                1142784             
Dropout (Unnamed)             (64, 100, 512)                0                   
LSTM (Unnamed)                (64, 512)                     2099200             
Dropout (Unnamed)             (64, 512)                     0                   
Dense (Unnamed)               (64, 2)                       1026                
--------------------------------------------------------------------------------
Total params: 3243010
--------------------------------------------------------------------------------
Compiling model...
test shape: (541, 45) (541, 2)
After sliding window: (442, 100, 45) (442, 2)
pred_y: (442, 2)
test shape: (541, 45) (541, 2)
After sliding window: (442, 100, 45) (442, 2)
pred_y: (442, 2)
…
