…
(5404, 63)
random_IDs_40.txt (10, 40) 
 using indexes (shape,values): (40,) : [36 55  7 25 51 42  3 20 60  0 58 11 57  1 30 46 14 41 53 28 21 29 19 47 62
 35 18  4 22 44 32 34  9 12 43  5  6 31 45 17]
Creating model...
--------------------------------------------------------------------------------
Initial input shape: (64, 100, 40)
--------------------------------------------------------------------------------
Layer (name)                  Output Shape                  Param #             
--------------------------------------------------------------------------------
LSTM (Unnamed)                (64, 100, 512)                1132544             
Dropout (Unnamed)             (64, 100, 512)                0                   
LSTM (Unnamed)                (64, 512)                     2099200             
Dropout (Unnamed)             (64, 512)                     0                   
Dense (Unnamed)               (64, 2)                       1026                
--------------------------------------------------------------------------------
Total params: 3232770
--------------------------------------------------------------------------------
Compiling model...
test shape: (541, 40) (541, 2)
After sliding window: (442, 100, 40) (442, 2)
pred_y: (442, 2)
test shape: (541, 40) (541, 2)
After sliding window: (442, 100, 40) (442, 2)
pred_y: (442, 2)
…
