…
minX/maxX/meanX/stdX/miny/maxy: 0.0 59.0 0.740248258198 2.35919268164 4.39033 107.044
(5404, 63)
random_IDs_25.txt (10, 25) 
 using indexes (shape,values): (25,) : [27 39 48 34 32 57 28 19 56 40 20 45 25 21 31 33 51  0 16 23 52 12 36  2 62]
Creating model...
--------------------------------------------------------------------------------
Initial input shape: (64, 100, 25)
--------------------------------------------------------------------------------
Layer (name)                  Output Shape                  Param #             
--------------------------------------------------------------------------------
LSTM (Unnamed)                (64, 100, 512)                1101824             
Dropout (Unnamed)             (64, 100, 512)                0                   
LSTM (Unnamed)                (64, 512)                     2099200             
Dropout (Unnamed)             (64, 512)                     0                   
Dense (Unnamed)               (64, 2)                       1026                
--------------------------------------------------------------------------------
Total params: 3202050
--------------------------------------------------------------------------------
Compiling model...
test shape: (541, 25) (541, 2)
After sliding window: (442, 100, 25) (442, 2)
pred_y: (442, 2)
test shape: (541, 25) (541, 2)
After sliding window: (442, 100, 25) (442, 2)
pred_y: (442, 2)
…
