…
random_IDs_50.txt (10, 50) 
 using indexes (shape,values): (50,) : [39 27 15 20 37  6 16 54 11  9 13 43 18 24 17 59 50 21 46 31  0 53 44 10  4
 61 40 29  3 60 28 56 42 34 41 51 32 30 26  2 22 35 12 49 62  7 58  8 23 45]
Creating model...
--------------------------------------------------------------------------------
Initial input shape: (64, 100, 50)
--------------------------------------------------------------------------------
Layer (name)                  Output Shape                  Param #             
--------------------------------------------------------------------------------
LSTM (Unnamed)                (64, 100, 512)                1153024             
Dropout (Unnamed)             (64, 100, 512)                0                   
LSTM (Unnamed)                (64, 512)                     2099200             
Dropout (Unnamed)             (64, 512)                     0                   
Dense (Unnamed)               (64, 2)                       1026                
--------------------------------------------------------------------------------
Total params: 3253250
--------------------------------------------------------------------------------
Compiling model...
test shape: (541, 50) (541, 2)
After sliding window: (442, 100, 50) (442, 2)
pred_y: (442, 2)
test shape: (541, 50) (541, 2)
After sliding window: (442, 100, 50) (442, 2)
pred_y: (442, 2)
…
