…
random_IDs_50.txt (10, 50) 
 using indexes (shape,values): (50,) : [45 43 13 31 12 30 58 18 59 42 14 32 52 20 50 60  3 56 27 47 54 49 10 62 23
  6  4 38 34 48 21 33 39 46 19 11 55 15 41 17 57  9 61 24 40  5  1 28 16  0]
Creating model...
--------------------------------------------------------------------------------
Initial input shape: (64, 100, 50)
--------------------------------------------------------------------------------
Layer (name)                  Output Shape                  Param #             
--------------------------------------------------------------------------------
LSTM (Unnamed)                (64, 100, 512)                1153024             
Dropout (Unnamed)             (64, 100, 512)                0                   
LSTM (Unnamed)                (64, 512)                     2099200             
Dropout (Unnamed)             (64, 512)                     0                   
Dense (Unnamed)               (64, 2)                       1026                
--------------------------------------------------------------------------------
Total params: 3253250
--------------------------------------------------------------------------------
Compiling model...
test shape: (541, 50) (541, 2)
After sliding window: (442, 100, 50) (442, 2)
pred_y: (442, 2)
test shape: (541, 50) (541, 2)
After sliding window: (442, 100, 50) (442, 2)
pred_y: (442, 2)
…
