…
random_IDs_45.txt (10, 45) 
 using indexes (shape,values): (45,) : [28 33 57 16 26 41 24 35  9 25  1  7 55  0  3 46 20 48 49 29 19 42 32 17  6
 61 11 12 39  5 10 27 38 14 45 18 51 23 62 36 59  4  2 13 31]
Creating model...
--------------------------------------------------------------------------------
Initial input shape: (64, 100, 45)
--------------------------------------------------------------------------------
Layer (name)                  Output Shape                  Param #             
--------------------------------------------------------------------------------
LSTM (Unnamed)                (64, 100, 512)                1142784             
Dropout (Unnamed)             (64, 100, 512)                0                   
LSTM (Unnamed)                (64, 512)                     2099200             
Dropout (Unnamed)             (64, 512)                     0                   
Dense (Unnamed)               (64, 2)                       1026                
--------------------------------------------------------------------------------
Total params: 3243010
--------------------------------------------------------------------------------
Compiling model...
test shape: (541, 45) (541, 2)
After sliding window: (442, 100, 45) (442, 2)
pred_y: (442, 2)
test shape: (541, 45) (541, 2)
After sliding window: (442, 100, 45) (442, 2)
pred_y: (442, 2)
…
