…
(5404, 63)
random_IDs_40.txt (10, 40) 
 using indexes (shape,values): (40,) : [11 58 26 47 12  9 15 61 41 10 22  1 56 27 52 37  2 18 40 39 46 16 55 31 57
 59 42 28 30 48 33 24 51 17 14 34 21  4 44 29]
Creating model...
--------------------------------------------------------------------------------
Initial input shape: (64, 100, 40)
--------------------------------------------------------------------------------
Layer (name)                  Output Shape                  Param #             
--------------------------------------------------------------------------------
LSTM (Unnamed)                (64, 100, 512)                1132544             
Dropout (Unnamed)             (64, 100, 512)                0                   
LSTM (Unnamed)                (64, 512)                     2099200             
Dropout (Unnamed)             (64, 512)                     0                   
Dense (Unnamed)               (64, 2)                       1026                
--------------------------------------------------------------------------------
Total params: 3232770
--------------------------------------------------------------------------------
Compiling model...
test shape: (541, 40) (541, 2)
After sliding window: (442, 100, 40) (442, 2)
pred_y: (442, 2)
test shape: (541, 40) (541, 2)
After sliding window: (442, 100, 40) (442, 2)
pred_y: (442, 2)
…
