…
 using indexes (shape,values): (55,) : [16 25 17 21 39 44  1  6 53 32 57 15  8 28 27 42 40  5 56 54 23 29 62 47 10
 35 45 34 26  0 46 33 14 22 48 18  4  9 50 60 13 51 36 12 55 38 20 31  3 19
 52 61 30 11 59]
Creating model...
--------------------------------------------------------------------------------
Initial input shape: (64, 100, 55)
--------------------------------------------------------------------------------
Layer (name)                  Output Shape                  Param #             
--------------------------------------------------------------------------------
LSTM (Unnamed)                (64, 100, 512)                1163264             
Dropout (Unnamed)             (64, 100, 512)                0                   
LSTM (Unnamed)                (64, 512)                     2099200             
Dropout (Unnamed)             (64, 512)                     0                   
Dense (Unnamed)               (64, 2)                       1026                
--------------------------------------------------------------------------------
Total params: 3263490
--------------------------------------------------------------------------------
Compiling model...
test shape: (541, 55) (541, 2)
After sliding window: (442, 100, 55) (442, 2)
pred_y: (442, 2)
test shape: (541, 55) (541, 2)
After sliding window: (442, 100, 55) (442, 2)
pred_y: (442, 2)
…
