…
minX/maxX/meanX/stdX/miny/maxy: 0.0 59.0 0.740248258198 2.35919268164 4.39033 107.044
(5404, 63)
random_IDs_25.txt (10, 25) 
 using indexes (shape,values): (25,) : [49  9  3 50  0  5 59 10 27  8 46  7  2 14 21  6 37 48 36 24  1 51 55 25 56]
Creating model...
--------------------------------------------------------------------------------
Initial input shape: (64, 100, 25)
--------------------------------------------------------------------------------
Layer (name)                  Output Shape                  Param #             
--------------------------------------------------------------------------------
LSTM (Unnamed)                (64, 100, 512)                1101824             
Dropout (Unnamed)             (64, 100, 512)                0                   
LSTM (Unnamed)                (64, 512)                     2099200             
Dropout (Unnamed)             (64, 512)                     0                   
Dense (Unnamed)               (64, 2)                       1026                
--------------------------------------------------------------------------------
Total params: 3202050
--------------------------------------------------------------------------------
Compiling model...
test shape: (541, 25) (541, 2)
After sliding window: (442, 100, 25) (442, 2)
pred_y: (442, 2)
test shape: (541, 25) (541, 2)
After sliding window: (442, 100, 25) (442, 2)
pred_y: (442, 2)
…
