…
 using indexes (shape,values): (55,) : [40 29 54 55 53 10  2 31 43  0 56 15 47  5 46  6  3 45 41  1 34 52  7 27 17
 32 50 35 48 13 19 51 12 33 39 14 28 30 20 58 23 21 18 37 49 60  9 62 61 38
 16 36 44 22 59]
Creating model...
--------------------------------------------------------------------------------
Initial input shape: (64, 100, 55)
--------------------------------------------------------------------------------
Layer (name)                  Output Shape                  Param #             
--------------------------------------------------------------------------------
LSTM (Unnamed)                (64, 100, 512)                1163264             
Dropout (Unnamed)             (64, 100, 512)                0                   
LSTM (Unnamed)                (64, 512)                     2099200             
Dropout (Unnamed)             (64, 512)                     0                   
Dense (Unnamed)               (64, 2)                       1026                
--------------------------------------------------------------------------------
Total params: 3263490
--------------------------------------------------------------------------------
Compiling model...
test shape: (541, 55) (541, 2)
After sliding window: (442, 100, 55) (442, 2)
pred_y: (442, 2)
test shape: (541, 55) (541, 2)
After sliding window: (442, 100, 55) (442, 2)
pred_y: (442, 2)
…
