…
minX/maxX/meanX/stdX/miny/maxy: 0.0 59.0 0.740248258198 2.35919268164 4.39033 107.044
(5404, 63)
random_IDs_20.txt (10, 20) 
 using indexes (shape,values): (20,) : [46 55 51 13 30  6 56 62 16 58 12 53 38 18 50 39  1 36 43 37]
Creating model...
--------------------------------------------------------------------------------
Initial input shape: (64, 100, 20)
--------------------------------------------------------------------------------
Layer (name)                  Output Shape                  Param #             
--------------------------------------------------------------------------------
LSTM (Unnamed)                (64, 100, 512)                1091584             
Dropout (Unnamed)             (64, 100, 512)                0                   
LSTM (Unnamed)                (64, 512)                     2099200             
Dropout (Unnamed)             (64, 512)                     0                   
Dense (Unnamed)               (64, 2)                       1026                
--------------------------------------------------------------------------------
Total params: 3191810
--------------------------------------------------------------------------------
Compiling model...
test shape: (541, 20) (541, 2)
After sliding window: (442, 100, 20) (442, 2)
pred_y: (442, 2)
test shape: (541, 20) (541, 2)
After sliding window: (442, 100, 20) (442, 2)
pred_y: (442, 2)
…
