…
minX/maxX/meanX/stdX/miny/maxy: 0.0 59.0 0.740248258198 2.35919268164 4.39033 107.044
(5404, 63)
random_IDs_10.txt (10, 10) 
 using indexes (shape,values): (10,) : [15 14 31 36  4 22 50 28  2 45]
Creating model...
--------------------------------------------------------------------------------
Initial input shape: (64, 100, 10)
--------------------------------------------------------------------------------
Layer (name)                  Output Shape                  Param #             
--------------------------------------------------------------------------------
LSTM (Unnamed)                (64, 100, 512)                1071104             
Dropout (Unnamed)             (64, 100, 512)                0                   
LSTM (Unnamed)                (64, 512)                     2099200             
Dropout (Unnamed)             (64, 512)                     0                   
Dense (Unnamed)               (64, 2)                       1026                
--------------------------------------------------------------------------------
Total params: 3171330
--------------------------------------------------------------------------------
Compiling model...
test shape: (541, 10) (541, 2)
After sliding window: (442, 100, 10) (442, 2)
pred_y: (442, 2)
test shape: (541, 10) (541, 2)
After sliding window: (442, 100, 10) (442, 2)
pred_y: (442, 2)
…
