…
minX/maxX/meanX/stdX/miny/maxy: 0.0 59.0 0.740248258198 2.35919268164 4.39033 107.044
(5404, 63)
random_IDs_25.txt (10, 25) 
 using indexes (shape,values): (25,) : [16 13 43 34 19 52 10 12  1 62 32  7 17 20 59  5 37 49 42 26 14 15 46 57 44]
Creating model...
--------------------------------------------------------------------------------
Initial input shape: (64, 100, 25)
--------------------------------------------------------------------------------
Layer (name)                  Output Shape                  Param #             
--------------------------------------------------------------------------------
LSTM (Unnamed)                (64, 100, 512)                1101824             
Dropout (Unnamed)             (64, 100, 512)                0                   
LSTM (Unnamed)                (64, 512)                     2099200             
Dropout (Unnamed)             (64, 512)                     0                   
Dense (Unnamed)               (64, 2)                       1026                
--------------------------------------------------------------------------------
Total params: 3202050
--------------------------------------------------------------------------------
Compiling model...
test shape: (541, 25) (541, 2)
After sliding window: (442, 100, 25) (442, 2)
pred_y: (442, 2)
test shape: (541, 25) (541, 2)
After sliding window: (442, 100, 25) (442, 2)
pred_y: (442, 2)
…
