…
minX/maxX/meanX/stdX/miny/maxy: 0.0 59.0 0.740248258198 2.35919268164 4.39033 107.044
(5404, 63)
random_IDs_25.txt (10, 25) 
 using indexes (shape,values): (25,) : [ 2 30 46  3 57 58  7 54 39 24  0 59 37 60  1 23 13 15 26 49 25 19 11 45 33]
Creating model...
--------------------------------------------------------------------------------
Initial input shape: (64, 100, 25)
--------------------------------------------------------------------------------
Layer (name)                  Output Shape                  Param #             
--------------------------------------------------------------------------------
LSTM (Unnamed)                (64, 100, 512)                1101824             
Dropout (Unnamed)             (64, 100, 512)                0                   
LSTM (Unnamed)                (64, 512)                     2099200             
Dropout (Unnamed)             (64, 512)                     0                   
Dense (Unnamed)               (64, 2)                       1026                
--------------------------------------------------------------------------------
Total params: 3202050
--------------------------------------------------------------------------------
Compiling model...
test shape: (541, 25) (541, 2)
After sliding window: (442, 100, 25) (442, 2)
pred_y: (442, 2)
test shape: (541, 25) (541, 2)
After sliding window: (442, 100, 25) (442, 2)
pred_y: (442, 2)
…
