Using Theano backend.
Original data:  (7281, 43) (7281, 2) 0.0 76.0 1.66481092873 4.1419133601 0.785056 105.19
(7281, 2)
original data dimensions from load_data (7281, 43) (7281, 2)
Creating model...
--------------------------------------------------------------------------------
Initial input shape: (64, 100, 43)
--------------------------------------------------------------------------------
Layer (name)                  Output Shape                  Param #             
--------------------------------------------------------------------------------
LSTM (Unnamed)                (64, 100, 512)                1138688             
Dropout (Unnamed)             (64, 100, 512)                0                   
LSTM (Unnamed)                (64, 512)                     2099200             
Dropout (Unnamed)             (64, 512)                     0                   
Dense (Unnamed)               (64, 2)                       1026                
--------------------------------------------------------------------------------
Total params: 3238914
--------------------------------------------------------------------------------
Compiling model...
After sliding window: (630, 100, 43) (630, 2)
first and second part lengths are... 0 6552
After sliding window: (6453, 100, 43) (6453, 2)
SLIDING WINDOW : shapes of test and rest: (630, 100, 43) (6453, 100, 43)
…
