Using Theano backend.
Original data:  (7279, 43) (7279, 2) 0.0 81.0 1.99767729403 4.77824001651 0.785056 105.19
(7279, 2)
original data dimensions from load_data (7279, 43) (7279, 2)
Creating model...
--------------------------------------------------------------------------------
Initial input shape: (64, 100, 43)
--------------------------------------------------------------------------------
Layer (name)                  Output Shape                  Param #             
--------------------------------------------------------------------------------
LSTM (Unnamed)                (64, 100, 512)                1138688             
Dropout (Unnamed)             (64, 100, 512)                0                   
LSTM (Unnamed)                (64, 512)                     2099200             
Dropout (Unnamed)             (64, 512)                     0                   
Dense (Unnamed)               (64, 2)                       1026                
--------------------------------------------------------------------------------
Total params: 3238914
--------------------------------------------------------------------------------
Compiling model...
After sliding window: (629, 100, 43) (629, 2)
first and second part lengths are... 0 6551
After sliding window: (6452, 100, 43) (6452, 2)
SLIDING WINDOW : shapes of test and rest: (629, 100, 43) (6452, 100, 43)
…
