Using Theano backend.
Original data:  (7280, 43) (7280, 2) 0.0 77.0 1.83122923588 4.46395161137 0.609247 105.067
(7280, 2)
original data dimensions from load_data (7280, 43) (7280, 2)
Creating model...
--------------------------------------------------------------------------------
Initial input shape: (64, 100, 43)
--------------------------------------------------------------------------------
Layer (name)                  Output Shape                  Param #             
--------------------------------------------------------------------------------
LSTM (Unnamed)                (64, 100, 512)                1138688             
Dropout (Unnamed)             (64, 100, 512)                0                   
LSTM (Unnamed)                (64, 512)                     2099200             
Dropout (Unnamed)             (64, 512)                     0                   
Dense (Unnamed)               (64, 2)                       1026                
--------------------------------------------------------------------------------
Total params: 3238914
--------------------------------------------------------------------------------
Compiling model...
After sliding window: (629, 100, 43) (629, 2)
first and second part lengths are... 0 6552
After sliding window: (6453, 100, 43) (6453, 2)
SLIDING WINDOW : shapes of test and rest: (629, 100, 43) (6453, 100, 43)
…
