Using Theano backend.
Original data:  (7276, 43) (7276, 2) 0.0 90.0 2.49720968587 5.68119508676 0.609247 105.067
(7276, 2)
original data dimensions from load_data (7276, 43) (7276, 2)
Creating model...
--------------------------------------------------------------------------------
Initial input shape: (64, 100, 43)
--------------------------------------------------------------------------------
Layer (name)                  Output Shape                  Param #             
--------------------------------------------------------------------------------
LSTM (Unnamed)                (64, 100, 512)                1138688             
Dropout (Unnamed)             (64, 100, 512)                0                   
LSTM (Unnamed)                (64, 512)                     2099200             
Dropout (Unnamed)             (64, 512)                     0                   
Dense (Unnamed)               (64, 2)                       1026                
--------------------------------------------------------------------------------
Total params: 3238914
--------------------------------------------------------------------------------
Compiling model...
After sliding window: (629, 100, 43) (629, 2)
first and second part lengths are... 0 6548
After sliding window: (6449, 100, 43) (6449, 2)
SLIDING WINDOW : shapes of test and rest: (629, 100, 43) (6449, 100, 43)
…
