Using Theano backend.
Original data:  (7285, 43) (7285, 2) 0.0 56.0 0.998968891159 2.75959941921 0.785056 105.19
(7285, 2)
original data dimensions from load_data (7285, 43) (7285, 2)
Creating model...
--------------------------------------------------------------------------------
Initial input shape: (64, 100, 43)
--------------------------------------------------------------------------------
Layer (name)                  Output Shape                  Param #             
--------------------------------------------------------------------------------
LSTM (Unnamed)                (64, 100, 512)                1138688             
Dropout (Unnamed)             (64, 100, 512)                0                   
LSTM (Unnamed)                (64, 512)                     2099200             
Dropout (Unnamed)             (64, 512)                     0                   
Dense (Unnamed)               (64, 2)                       1026                
--------------------------------------------------------------------------------
Total params: 3238914
--------------------------------------------------------------------------------
Compiling model...
After sliding window: (630, 100, 43) (630, 2)
first and second part lengths are... 0 6556
After sliding window: (6457, 100, 43) (6457, 2)
SLIDING WINDOW : shapes of test and rest: (630, 100, 43) (6457, 100, 43)
…
