Using Theano backend.
Original data:  (7286, 43) (7286, 2) 0.0 46.0 0.83249174907 2.38479365906 0.609247 105.067
(7286, 2)
original data dimensions from load_data (7286, 43) (7286, 2)
Creating model...
--------------------------------------------------------------------------------
Initial input shape: (64, 100, 43)
--------------------------------------------------------------------------------
Layer (name)                  Output Shape                  Param #             
--------------------------------------------------------------------------------
LSTM (Unnamed)                (64, 100, 512)                1138688             
Dropout (Unnamed)             (64, 100, 512)                0                   
LSTM (Unnamed)                (64, 512)                     2099200             
Dropout (Unnamed)             (64, 512)                     0                   
Dense (Unnamed)               (64, 2)                       1026                
--------------------------------------------------------------------------------
Total params: 3238914
--------------------------------------------------------------------------------
Compiling model...
After sliding window: (630, 100, 43) (630, 2)
first and second part lengths are... 0 6557
After sliding window: (6458, 100, 43) (6458, 2)
SLIDING WINDOW : shapes of test and rest: (630, 100, 43) (6458, 100, 43)
…
