Using Theano backend.
Original data:  (7277, 43) (7277, 2) 0.0 89.0 2.33066910399 5.38662586764 0.785056 105.19
(7277, 2)
original data dimensions from load_data (7277, 43) (7277, 2)
Creating model...
--------------------------------------------------------------------------------
Initial input shape: (64, 100, 43)
--------------------------------------------------------------------------------
Layer (name)                  Output Shape                  Param #             
--------------------------------------------------------------------------------
LSTM (Unnamed)                (64, 100, 512)                1138688             
Dropout (Unnamed)             (64, 100, 512)                0                   
LSTM (Unnamed)                (64, 512)                     2099200             
Dropout (Unnamed)             (64, 512)                     0                   
Dense (Unnamed)               (64, 2)                       1026                
--------------------------------------------------------------------------------
Total params: 3238914
--------------------------------------------------------------------------------
Compiling model...
After sliding window: (629, 100, 43) (629, 2)
first and second part lengths are... 0 6549
After sliding window: (6450, 100, 43) (6450, 2)
SLIDING WINDOW : shapes of test and rest: (629, 100, 43) (6450, 100, 43)
…
