Using Theano backend.
Original data:  (7290, 43) (7290, 2) 0.0 14.0 0.166494401378 0.67928410929 0.609247 105.067
(7290, 2)
original data dimensions from load_data (7290, 43) (7290, 2)
Creating model...
--------------------------------------------------------------------------------
Initial input shape: (64, 100, 43)
--------------------------------------------------------------------------------
Layer (name)                  Output Shape                  Param #             
--------------------------------------------------------------------------------
LSTM (Unnamed)                (64, 100, 512)                1138688             
Dropout (Unnamed)             (64, 100, 512)                0                   
LSTM (Unnamed)                (64, 512)                     2099200             
Dropout (Unnamed)             (64, 512)                     0                   
Dense (Unnamed)               (64, 2)                       1026                
--------------------------------------------------------------------------------
Total params: 3238914
--------------------------------------------------------------------------------
Compiling model...
After sliding window: (630, 100, 43) (630, 2)
first and second part lengths are... 0 6561
After sliding window: (6462, 100, 43) (6462, 2)
SLIDING WINDOW : shapes of test and rest: (630, 100, 43) (6462, 100, 43)
…
