Using Theano backend.
Original data:  (7289, 43) (7289, 2) 0.0 24.0 0.332996200072 1.15196255656 0.785056 105.19
(7289, 2)
original data dimensions from load_data (7289, 43) (7289, 2)
Creating model...
--------------------------------------------------------------------------------
Initial input shape: (64, 100, 43)
--------------------------------------------------------------------------------
Layer (name)                  Output Shape                  Param #             
--------------------------------------------------------------------------------
LSTM (Unnamed)                (64, 100, 512)                1138688             
Dropout (Unnamed)             (64, 100, 512)                0                   
LSTM (Unnamed)                (64, 512)                     2099200             
Dropout (Unnamed)             (64, 512)                     0                   
Dense (Unnamed)               (64, 2)                       1026                
--------------------------------------------------------------------------------
Total params: 3238914
--------------------------------------------------------------------------------
Compiling model...
After sliding window: (630, 100, 43) (630, 2)
first and second part lengths are... 0 6560
After sliding window: (6461, 100, 43) (6461, 2)
SLIDING WINDOW : shapes of test and rest: (630, 100, 43) (6461, 100, 43)
…
